model/keypoint_classifier/keypoint_classifier.tflite (tflite, 6656 bytes, 6 tensors)

dense_5/bias f4 [9]
0	0xbea4d32a	-0.32192355
1	0xbe726894	-0.23672706
2	0x3e0e2d30	0.13884425
3	0xbe621f46	-0.22082242
4	0x3e251402	0.16120914
5	0xbbb53a68	-0.005530644
6	0xbe7ea501	-0.24867631
7	0x3f10d393	0.56572837
8	0x3f11bd17	0.56929153

dense_4/bias f4 [10]
0	0x3e0e26af	0.13881944
1	0xbe96ae77	-0.2942998
2	0xbf26c2c5	-0.65140945
3	0x3ee7f5b5	0.45304647
4	0x3f9177a5	1.1364638
5	0x3f4873c6	0.78301656
6	0x3e33eb85	0.17570312
7	0x3d1a1f90	0.037627757
8	0x3f52c8b4	0.823375
9	0xbe91c13b	-0.28467736

dense_3/bias f4 [20]
0	0xbf0347cb	-0.5128142
1	0xbe9e8fbb	-0.30969033
2	0x3f28922b	0.65848035
3	0x3eaf96a2	0.3429461
4	0xbf10c7d1	-0.56554896
5	0xbe398d61	-0.18120338
6	0xbed97c47	-0.4247763
7	0xbe887ff7	-0.2666013
8	0xbf07eada	-0.5309273
9	0xbf21cc40	-0.63202286
10	0xbeae7a9e	-0.34077924
11	0xbf114f2d	-0.5676144
12	0xbf3ae2f4	-0.73002553
13	0xbe075c1f	-0.13218735
14	0xbf238a3a	-0.6388279
15	0x3d9469bf	0.07246732
16	0xbf5f2db9	-0.8717914
17	0x3f225030	0.63403606
18	0xbfa9a4a7	-1.3253373
19	0x3f00f9a8	0.50380945

sequential_1/dense_3/MatMul f4 [20, 42]
0	0x3d951ba0	0.0728066
1	0x3e9b2aee	0.3030619
2	0xbd38366c	-0.044973776
3	0x3f351d55	0.7074788
4	0x3dd88fbf	0.105742924
5	0x3ef8417d	0.48487464
6	0x3de769c7	0.11299472
7	0x3ecc35c6	0.39884776
8	0x3cbec664	0.02328796
9	0x3eb4e593	0.353314
10	0x3a76c7c0	0.00094139203
11	0x3e350944	0.17679316
12	0x3c7278c5	0.0147993015
13	0x3e1b8311	0.15186717
14	0xbaf4e3ee	-0.0018683651
15	0x3df4291e	0.11921905
16	0xbcdbaafe	-0.026814934
17	0x3d6aedcd	0.05735569
18	0x3e26f5f4	0.16304761
19	0x3d7f4abb	0.062327128
20	0x3d41ea78	0.047342747
21	0x3d4860d2	0.04892046
22	0xbdc31a3b	-0.095264874
23	0xbea58334	-0.32326663
24	0xbe91bc7c	-0.28464115
25	0xbf7ecf77	-0.99535316
26	0x3e4df97c	0.20114702
27	0xbd037452	-0.032093354
28	0x3e159232	0.1460655
29	0xbc2ed3d3	-0.01067062
30	0xbde1f7f1	-0.11033619
31	0xbead1f58	-0.33812976
32	0xbf3902b3	-0.72269744
33	0xbf64d1bd	-0.89382535
34	0x3e43ed42	0.19133475
35	0xbbf38adc	-0.007432325
36	0x3e015f31	0.12633969
37	0x395dbb96	0.00021146084
38	0x3dc973cb	0.09836539
39	0xbef31105	-0.47473922
40	0xbe8bc720	-0.27300358
41	0xbf10607a	-0.5639721
42	0xbe9ecf84	-0.31017697
43	0x3e0f691c	0.1400494
44	0x3e11ce47	0.14238845
45	0x3d8e53bb	0.06949564
46	0x3d47abd6	0.04874786
47	0x3da3feb1	0.08007563
48	0x3e1ddca6	0.15416202
49	0x3dd96340	0.106146336
50	0x3e247908	0.16061795
51	0x3de5ced5	0.11221091
52	0xbf109ddf	-0.5649089
53	0xbea9695c	-0.33088195
54	0xbe4eba1a	-0.2018818
55	0xbe9e082a	-0.30865604
56	0xbdd6a049	-0.10479791
57	0xbe9bb0b1	-0.30408242
58	0xbdb9b7aa	-0.09068234
59	0xbe151557	-0.14558922
60	0xbec16a11	-0.37776235
61	0xbf198ef4	-0.59983754
62	0x3da541cf	0.080691926
63	0xbe3baf44	-0.18328577
64	0x3df10768	0.11768991
65	0xbc89ead5	-0.01683561
66	0x3dd8f244	0.105930835
67	0xbd07cb5a	-0.033152916
68	0xbe2eddfb	-0.17076866
69	0xbf4c0a66	-0.79703367
70	0x3e029019	0.12750281
71	0xbdd002f7	-0.101568155
72	0x3dc8bf86	0.09802155
73	0x3ed5decb	0.4177154
74	0x3c1caab1	0.00956218
75	0x3f0cb1c3	0.5495874
76	0xbb821576	-0.0039698435
77	0xbf5c6a81	-0.8610001
78	0x3e480f48	0.1953708
79	0xbc707035	-0.01467519
80	0x3dd1be3a	0.10241361
81	0x3f04abd5	0.51824695
82	0xbdcbc726	-0.09950094
83	0x3eeacc2e	0.45858902
84	0x3d603c10	0.05474478
85	0xbe1d85e1	-0.15383102
86	0xbe4c3f2b	-0.19945972
87	0x3fb192e5	1.3872954
88	0x3e6640c0	0.22485638
89	0x3f880ae5	1.0628325
90	0x3e1126e1	0.14174987
91	0x3f444c39	0.76678807
92	0x3e41513e	0.18878648
93	0x3ee6edba	0.45103246
94	0xbeccf0f5	-0.40027586
95	0x3f9da6f7	1.2316579
96	0x3d7400f7	0.059571233
97	0x3f1a83d2	0.6035739
98	0x3e406c60	0.18791342
99	0x3ce0d155	0.027443567
100	0x3e697d7d	0.22801776
101	0xbe9462ad	-0.28981534
102	0xbcfa809c	-0.030578904
103	0x3ef00cc6	0.46884745
104	0x3cc81a63	0.024426645
105	0x3e3eb030	0.18621898
106	0x3d188b48	0.037242204
107	0x3daf67bc	0.08564708
108	0xbafdbab3	-0.0019358009
109	0x3d78f134	0.060776904
110	0xbe4a67c0	-0.1976614
111	0x3e2af0d1	0.16693427
112	0x3c7eea05	0.015558724
113	0x3dbd962a	0.09257157
114	0x3daef62f	0.085430495
115	0xbca70181	-0.02038646
116	0xbe017d6d	-0.12645502
117	0xbec2921a	-0.38002092
118	0x3d887941	0.06663752
119	0x3d8a7f4a	0.0676256
120	0xbd87559e	-0.06608127
121	0xbb9410e6	-0.004518616
122	0xbd74abfd	-0.059734333
123	0x3dfc7a0e	0.123279676
124	0xbea272fd	-0.31728354
125	0x3c7b1b57	0.015326343
126	0x3d9e81b0	0.0773958
127	0xbd1b03a0	-0.037845254
128	0xbe028d3a	-0.12749186
129	0x3fec3376	1.8453205
130	0xbe911ce1	-0.28342345
131	0x3f91e9c2	1.1399462
132	0xbbca1020	-0.006166473
133	0x3f5b020d	0.85550004
134	0x3d745837	0.05965444
135	0x3f372f58	0.71556616
136	0xbf25c8d6	-0.64759576
137	0x3e09497f	0.13406943
138	0xbecef564	-0.40421593
139	0xbd482cd9	-0.048870895
140	0xbe571265	-0.2100311
141	0xbea0b0b6	-0.3138482
142	0xbdedbe53	-0.11608567
143	0xbef0900a	-0.46984893
144	0xbec1d2ae	-0.37856048
145	0xbd1bd4ec	-0.038044855
146	0xbdd1fc95	-0.10253254
147	0x3e60a5bb	0.21938221
148	0x3dca07a9	0.09864742
149	0x3e9834c1	0.29727748
150	0x3e0d7cb2	0.13817099
151	0x3e8867de	0.26641744
152	0x3e415966	0.18881759
153	0xbc8e159f	-0.017344294
154	0x3d40eb54	0.047099426
155	0x3e6e384d	0.23263665
156	0x3d49e26d	0.049288202
157	0x3e40d455	0.18830998
158	0x3e75d063	0.24005274
159	0x3da76b31	0.08174742
160	0x3f1a3707	0.60240215
161	0xbe120003	-0.14257817
162	0x3e27e07e	0.1639423
163	0x3e2016be	0.15633675
164	0x3e4874ee	0.19575855
165	0x3e22f21b	0.15912668
166	0x3e8d9b61	0.27657607
167	0x3dc208f7	0.09474366
168	0xbe00b3d3	-0.12568597
169	0x3c16b920	0.009199411
170	0xbceca609	-0.028887765
171	0xbdfad806	-0.122482345
172	0xbe334f96	-0.17510828
173	0xbe6d5f56	-0.23180899
174	0xbecc88d8	-0.39948153
175	0xbe8372ca	-0.25673515
176	0xbf3bbeb3	-0.7333786
177	0xbe88384e	-0.26605457
178	0x3d58352c	0.052785084
179	0x3ea533c4	0.32266057
180	0x3d23a243	0.039949667
181	0x3cb7d8b1	0.022442194
182	0xbc86266a	-0.01637574
183	0xbdc921d6	-0.09820907
184	0xbd5cec3f	-0.05393624
185	0xbe1ebf52	-0.1550267
186	0xbdcc8d32	-0.09987868
187	0x3ea6ec05	0.32601944
188	0x3dc04811	0.093887456
189	0xbe1cce51	-0.15313078
190	0x3e95bb48	0.29244447
191	0x3c2357a9	0.00996963
192	0x3ec8870e	0.3916554
193	0x3e71a151	0.23596694
194	0xbe56eb6d	-0.20988245
195	0x3e9a89dd	0.30183306
196	0x3d100a3d	0.035166014
197	0xbe4446d8	-0.1916765
198	0x3eeabab0	0.45845556
199	0xbd1b9f5e	-0.03799378
200	0x3f344bf4	0.70428395
201	0x3f4b90b0	0.7951765
202	0xbe9a746e	-0.30166954
203	0x3e38c659	0.18044414
204	0x3b6376a6	0.003470817
205	0xbe3d201a	-0.18469277
206	0x3e8a725c	0.27040374
207	0x3ca29778	0.019847617
208	0x3f27e989	0.6559072
209	0x3f4d0862	0.80090916
210	0xbe858684	-0.2607919
211	0xbdb4fe0c	-0.08837518
212	0x400dfb12	2.218449
213	0x3c611930	0.013738915
214	0x3f659956	0.896871
215	0x3de14ea8	0.110013306
216	0x3f0f28f5	0.5592187
217	0x3d905605	0.07047657
218	0x3eae751a	0.34073716
219	0x3d3c9a58	0.04604563
220	0x3e12dbef	0.1434171
221	0x3e11906b	0.14215247
222	0x3dd5dff7	0.104431085
223	0x3d167d87	0.036740806
224	0xbc05dd40	-0.008170426
225	0x3c0d8a9b	0.008639003
226	0xbda8daab	-0.082448326
227	0xbd3e4928	-0.046456486
228	0xbdcb0071	-0.099121936
229	0x3db50057	0.088379554
230	0x3e5f3c90	0.21800447
231	0xbdff5e54	-0.124691635
232	0x3ee12873	0.43976173
233	0xbd92f621	-0.071758516
234	0x3f273ed3	0.6533024
235	0xbe145833	-0.1448677
236	0xbe4e0445	-0.20118816
237	0xbc89d929	-0.016827183
238	0x3cc3dfd0	0.023910433
239	0xbdb99c9f	-0.09063076
240	0x3e0ec4d3	0.1394227
241	0xbdb342bc	-0.08752963
242	0x3e00dae9	0.12583508
243	0xbeb53194	-0.35389388
244	0xbe87ff81	-0.26562122
245	0xbe0c88d3	-0.1372407
246	0xbe766bbf	-0.2406454
247	0xbda5cf40	-0.080961704
248	0xbee0f7e1	-0.43939117
249	0x3dc94ef8	0.09829515
250	0xbf852171	-1.040083
251	0x3df1ed71	0.118128665
252	0x3e5caec8	0.21551049
253	0x3e096b8e	0.13419935
254	0x3e5acc57	0.21367012
255	0xbe5cb8de	-0.21554896

sequential_1/dense_4/MatMul f4 [10, 20]
0	0x3fb9aa3b	1.4505075
1	0x3f738ff9	0.9514156
2	0x3e9f224b	0.3108085
3	0xbb1ec472	-0.0024225977
4	0x3f14efa1	0.58178145
5	0x3e80144f	0.25015494
6	0x3f135ace	0.5756043
7	0x3fc87183	1.5659641
8	0x3fc6b1d6	1.5523021
9	0xbe67dba7	-0.22642384
10	0xbc961dce	-0.018324759
11	0x3d469b26	0.048487805
12	0x3fab8e60	1.3402824
13	0x3e647847	0.22311507
14	0x3eac45d7	0.33647034
15	0x3cc9b8c7	0.024624242
16	0x3efc04f7	0.49222538
17	0x3ebb4003	0.36572275
18	0xbd91bf5c	-0.07116577
19	0x3f6b3297	0.9187407
20	0x3f5ea324	0.8696768
21	0xbe450288	-0.19239247
22	0x3e09db79	0.13462628
23	0x3e94d3d2	0.29067856
24	0x3eb7375a	0.35784417
25	0x3f1afdda	0.60543597
26	0x3f7c9294	0.9866116
27	0x3f06039d	0.52349263
28	0x3f7ba115	0.98292667
29	0x3e9df7f0	0.30853224
30	0x3e58ad8d	0.21159954
31	0xbc8b3e44	-0.016997464
32	0x3f41d9b5	0.7572282
33	0xbe64bbc0	-0.22337246
34	0x3ef39d91	0.4758115
35	0x3cb5f152	0.022209797
36	0x3dce7491	0.10080827
37	0x3dc527f1	0.09626759
38	0x3f59b6f0	0.85044765
39	0x3e63e24c	0.22254294
40	0xbcf7c4f8	-0.03024529
41	0xbdb54792	-0.088515416
42	0x3e130572	0.14357546
43	0x3e931d5f	0.28733346
44	0x3ee55f14	0.447991
45	0x3ea16ab3	0.31526718
46	0xbed62e1a	-0.41832048
47	0xbc214432	-0.009842919
48	0xbe655e29	-0.223992
49	0x3efefcf5	0.49802366
50	0x3da5db4e	0.0809847
51	0x3d9ab57c	0.07554147
52	0xbe518954	-0.20462543
53	0x3e89cac9	0.26912525
54	0x3f617924	0.8807547
55	0x3e08e132	0.13367155
56	0xbe909a63	-0.28242788
57	0x3e54cb6c	0.20780724
58	0xbce72f9b	-0.028220942
59	0xbde81dcb	-0.113338076
60	0xbd328b65	-0.04358997
61	0x3f0d6523	0.5523245
62	0x3edc9c60	0.43088055
63	0x3e3b210a	0.18274322
64	0xbdfacbe8	-0.12245923
65	0x3e6f524a	0.23371235
66	0x3f42d1af	0.761012
67	0x3ccca840	0.024982572
68	0x3efd1987	0.49433538
69	0x3f85e3ba	1.0460122
70	0x3e0890b4	0.1333645
71	0xbce78a89	-0.0282643
72	0x3ddecd4f	0.10879003
73	0xbf19540e	-0.5989388
74	0x3fa39baa	1.278188
75	0xbe88f07c	-0.26745975
76	0xbf20db67	-0.6283478
77	0x3ebd69d7	0.36994812
78	0x3fb19889	1.3874675
79	0x3e7fa3de	0.24964854
80	0xbd28a2ec	-0.041171
81	0xbef540ac	-0.47900903
82	0x3f0c40a2	0.5478612
83	0x3f167cf5	0.5878442
84	0x3e3c0f98	0.18365324
85	0x3d34d893	0.044151854
86	0xbd7c1182	-0.061540134
87	0xbf98226b	-1.1885504
88	0xbe3d397a	-0.18478957
89	0x3e3cd958	0.18442285
90	0x3e6d8aab	0.23197429
91	0x3f2c8281	0.67386633
92	0xbd781b5f	-0.060572978
93	0x3f15dff2	0.5854484
94	0xbe18d6ef	-0.1492574
95	0x3efdedf2	0.495956
96	0x3f14d88f	0.5814294
97	0x3ed151f8	0.4088285
98	0xbddbbfd6	-0.10729949
99	0xbcafdc32	-0.021467302
100	0xbf832c3e	-1.0247877
101	0x3db6472b	0.08900293
102	0xbea78446	-0.32718104
103	0xbe41ee09	-0.1893846
104	0xbf3b960b	-0.7327582
105	0xbf9abb85	-1.2088476
106	0xbedd63b8	-0.43240142
107	0x3e88c173	0.2671009
108	0xbdf22c59	-0.11824865
109	0x3f1c7fb6	0.6113237
110	0x3f8399ac	1.0281272
111	0x3f89a3e1	1.0753137
112	0x3ee06d29	0.43833283
113	0xbe1f03f3	-0.1552885
114	0x3e1bf900	0.15231705
115	0x3f06a012	0.52588
116	0xbdf16191	-0.117861874
117	0xbdef5c8f	-0.11687576
118	0x3f0c5dd9	0.548307
119	0x3d036777	0.032081094
120	0x3df42de7	0.11922818
121	0x3f3b7306	0.73222387
122	0x3f9dc49e	1.2325628
123	0x3f99450f	1.19742
124	0x3e4bb815	0.1989444
125	0x3e729554	0.23689777
126	0x3e778aad	0.24173994
127	0x3ed80358	0.4219005
128	0xbe984a79	-0.29744318
129	0x3dd6f786	0.1049643
130	0x3e5d69d9	0.21622409
131	0x3cb0435d	0.021516496
132	0x3c98a71d	0.018634373
133	0x4001c750	2.02779
134	0xbeea4886	-0.45758456
135	0x3f02d880	0.511116
136	0x3ea45a92	0.3210035
137	0x3f6d22bd	0.9263113
138	0x3f1e263b	0.61777085
139	0x3cdc7575	0.026911477
140	0xbf761f1f	-0.9614124
141	0x3e8554b9	0.260412
142	0x3e889342	0.2667485
143	0x3ed3ce9b	0.41368565
144	0x3f64431c	0.891649
145	0xbdb4b2d3	-0.088231705
146	0x3e6bbcb3	0.23021202
147	0x3ea9794b	0.33100352
148	0x3f81ccaf	1.014059
149	0xbf0bf651	-0.54672724
150	0x3e86043e	0.26175112
151	0x3e3e8f41	0.18609335
152	0xc001b8c3	-2.026902
153	0x3d7ef2d4	0.062243298
154	0xbed3dc3e	-0.4137897
155	0xbed14ab0	-0.40877295
156	0x3f5c7dff	0.86129755
157	0x3f164aa4	0.5870764
158	0xbeb19ecf	-0.34691474
159	0x3de7dc5b	0.11321326
160	0xbd97fa01	-0.07420731
161	0x3f01e092	0.5073329
162	0xbc50206d	-0.012703043
163	0x3e0bc7b7	0.13650404
164	0xbee5c87f	-0.4487953
165	0x3f837585	1.0270239
166	0x3f1ea446	0.6196941
167	0x3ee197be	0.44061083
168	0xbf02bc16	-0.51068246
169	0x3f5baa39	0.85806614
170	0x3ee235a7	0.44181558
171	0xbf00a462	-0.5025083
172	0xbdb5e315	-0.08881203
173	0x3f07c2fd	0.53031904
174	0xbf1f233c	-0.6216314
175	0x3f542195	0.8286374
176	0xbeb23997	-0.34809563
177	0x3e4576f4	0.19283658
178	0xba36dc1f	-0.00069755496
179	0x3f2ff484	0.68732476
180	0x3d7270d6	0.05918964
181	0xbce1e88b	-0.027576705
182	0x3eb2df6a	0.34936076
183	0x3e6b1b99	0.22959746
184	0x3f19f7cc	0.60143733
185	0x3f2c5f85	0.6733325
186	0xbe59b9b5	-0.21262248
187	0x3dc1c117	0.09460657
188	0x3f68cbeb	0.90936154
189	0x3f2590fb	0.6467435
190	0x3f1ec1bd	0.6201437
191	0x3ef4d6ea	0.47820216
192	0x3e9e625e	0.30934423
193	0x3e56086c	0.2090165
194	0x3e98018c	0.2968868
195	0x3e9de275	0.30836836
196	0x3d1207b7	0.03565189
197	0x3e49f124	0.19720894
198	0x3dcb139b	0.09915849
199	0x3d863caa	0.065545395

sequential_1/dense_5/MatMul f4 [9, 10]
0	0x3f30b8b7	0.6903185
1	0x3f154e4b	0.5832259
2	0xbf01799b	-0.5057618
3	0xbf7897f4	-0.9710686
4	0xbe80a44e	-0.25125355
5	0x3e3a83d1	0.18214346
6	0x3e90f6a4	0.28313172
7	0x3ef39419	0.47573927
8	0xbdefceac	-0.117093414
9	0x3f815ae0	1.0105858
10	0x3e447976	0.19186959
11	0x3f468426	0.7754539
12	0x3f354b50	0.7081804
13	0x3f1ccbc0	0.612484
14	0xbf0d7d6a	-0.5526949
15	0x3e682e1a	0.22673836
16	0x3eeb00fd	0.45899191
17	0xbf09ed1f	-0.53877443
18	0x3e06e400	0.13172913
19	0xbddb05a9	-0.10694439
20	0xbe3b8750	-0.18313336
21	0xbe14458c	-0.14479655
22	0xbf67a722	-0.904894
23	0x3e4fae5a	0.20281354
24	0xbd21955f	-0.039449092
25	0xbf1b4609	-0.6065374
26	0x3f18e7dd	0.59728795
27	0x3cd0335a	0.025415111
28	0x3f732db7	0.9499163
29	0xbf6fc2da	-0.93656695
30	0x3f84c780	1.0373383
31	0x3f3b0feb	0.73071164
32	0xbf8f3f7f	-1.1191252
33	0xbdb92db1	-0.09041918
34	0xbfba357d	-1.4547573
35	0x3f1a7587	0.6033558
36	0xbfce7e05	-1.6132208
37	0x3f111a8b	0.56681126
38	0xbf142c53	-0.57880133
39	0xbf5876a8	-0.84556055
40	0x3f569460	0.8382015
41	0xbee04f8b	-0.43810686
42	0xbcfbd180	-0.030739546
43	0xbf8e1d37	-1.1102666
44	0xbf759b04	-0.9593966
45	0xbf196afc	-0.5992887
46	0x3f1fc7ca	0.6241423
47	0xbf5540d8	-0.8330207
48	0x3ed9e8f1	0.42560533
49	0xbfaa3134	-1.3296266
50	0x3ec2a81a	0.38018876
51	0x3f286d7f	0.6579208
52	0xbef1f49e	-0.4725694
53	0x3f9c2730	1.2199459
54	0xbf9c3b94	-1.2205682
55	0xbeaa6c34	-0.33285677
56	0xbf5dbb93	-0.8661434
57	0xbd921969	-0.07133753
58	0xbea30a2f	-0.31843707
59	0x3f324be7	0.6964707
60	0xbe765578	-0.24056041
61	0xbf950972	-1.1643507
62	0xbefd3a9a	-0.49458772
63	0xbea8d2e5	-0.329734
64	0x3f49d8b3	0.7884628
65	0xbf3c3df9	-0.7353206
66	0x3ef5e5b0	0.480268
67	0x3f56eb84	0.8395312
68	0xbf8f92c4	-1.1216664
69	0xbef9843a	-0.48733693
70	0xc01bb05e	-2.4326396
71	0xbf70ab88	-0.94011736
72	0xbdbea33c	-0.09308478
73	0x3d08b5f6	0.033376656
74	0x3e183f1e	0.14867827
75	0x3f96098d	1.1721665
76	0xbe855477	-0.26041004
77	0xbf977209	-1.1831676
78	0x3e1a2c93	0.15056066
79	0xbebb8405	-0.3662416
80	0xbf9c8528	-1.2228136
81	0xbe138021	-0.14404346
82	0x3f22d143	0.6360056
83	0xbea8e9b7	-0.3299081
84	0x3ef392c0	0.475729
85	0x3ec674f2	0.38761097
86	0xbfa2fa6c	-1.2732673
87	0xbef7436c	-0.48293626
88	0x3ecd2528	0.4006741
89	0x3f229434	0.6350739
